name: "shufflenet-SSD"
layer {
  name: "data"
  type: "AnnotatedData"
  top: "data"
  top: "label"
  include {
    phase: TEST
  }
  transform_param {
    scale: 0.007843
    mean_value: 127.5
    mean_value: 127.5
    mean_value: 127.5
    resize_param {
      prob: 1.0
      resize_mode: WARP
      height: 300
      width: 300
      interp_mode: LINEAR
    }
  }
  data_param {
    source:"/home/gjw/data/Facedevkit/Face/lmdb/FaceNew_test_lmdb/"
    batch_size: 1
    backend: LMDB
  }
  annotated_data_param {
    batch_sampler {
    }
    label_map_file:"/home/gjw/caffe-ssd/shuffleNet/labelmap.prototxt"
  }
}
layer {
  name: "conv1"
  type: "Convolution"
  bottom: "data"
  top: "conv1"
  param {
    lr_mult: 1
    decay_mult: 1
  }
  convolution_param {
    num_output: 24
    pad: 1
    kernel_size: 3
    stride: 2
    bias_term: false
    weight_filler {
      type: "msra"
    }
  }
}
layer {
  name: "conv1_bn"
  type: "BatchNorm"
  bottom: "conv1"
  top: "conv1"
  param {
    lr_mult: 0
    decay_mult: 0
  }
  param {
    lr_mult: 0
    decay_mult: 0
  }
  param {
    lr_mult: 0
    decay_mult: 0
  }
}
layer {
  name: "conv1_scale"
  bottom: "conv1"
  top: "conv1"
  type: "Scale"
  param {
    lr_mult: 1
    decay_mult: 0.0
  }
  param {
    lr_mult: 2
    decay_mult: 0.0
  }
  scale_param {
    filler {
      value: 1
    }
    bias_term: true
    bias_filler {
      value: 0
    }
  }
}
layer {
  name: "conv1_relu"
  type: "ReLU"
  bottom: "conv1"
  top: "conv1"
}
layer {
  name: "pool1"
  type: "Pooling"
  bottom: "conv1"
  top: "pool1"
  pooling_param {
    pool: MAX
    kernel_size: 3
    stride: 2
  }
}
layer {
  name: "resx1_match_conv"
  type: "Pooling"
  bottom:"pool1"
  top: "resx1_match_conv"
  pooling_param {
    pool: AVE
    kernel_size: 3
    stride: 2
    pad:1
  }
}
layer {
  name: "resx1_conv1"
  type: "Convolution"
  bottom: "pool1"
  top: "resx1_conv1"
  param {
    lr_mult: 1
    decay_mult: 1
  }
  convolution_param {
    num_output: 54
    kernel_size: 1
    stride: 1
    pad: 0
    bias_term: false
    weight_filler {
      type: "msra"
    }
  }
}
layer {
  name: "resx1_conv1_bn"
  type: "BatchNorm"
  bottom: "resx1_conv1"
  top: "resx1_conv1"
  param {
    lr_mult: 0
    decay_mult: 0
  }
  param {
    lr_mult: 0
    decay_mult: 0
  }
  param {
    lr_mult: 0
    decay_mult: 0
  }
}
layer {
  name: "resx1_conv1_scale"
  bottom: "resx1_conv1"
  top: "resx1_conv1"
  type: "Scale"
  param {
    lr_mult: 1
    decay_mult: 0.0
  }
  param {
    lr_mult: 2
    decay_mult: 0.0
  }
  scale_param {
    filler {
      value: 1
    }
    bias_term: true
    bias_filler {
      value: 0
    }
  }
}
layer {
  name: "resx1_conv1_relu"
  type: "ReLU"
  bottom: "resx1_conv1"
  top: "resx1_conv1"
}
layer {
  name: "resx1_conv2"
  type: "ConvolutionDepthwise"
  bottom: "resx1_conv1"
  top: "resx1_conv2"
  convolution_param {
    num_output: 54
    kernel_size: 3
    stride: 2
    pad: 1
    bias_term: false
    weight_filler {
      type: "msra"
    }
  }
}
layer {
  name: "resx1_conv2_bn"
  type: "BatchNorm"
  bottom: "resx1_conv2"
  top: "resx1_conv2"
  param {
    lr_mult: 0
    decay_mult: 0
  }
  param {
    lr_mult: 0
    decay_mult: 0
  }
  param {
    lr_mult: 0
    decay_mult: 0
  }
}
layer {
  name: "resx1_conv2_scale"
  bottom: "resx1_conv2"
  top: "resx1_conv2"
  type: "Scale"
  param {
    lr_mult: 1
    decay_mult: 0.0
  }
  param {
    lr_mult: 2
    decay_mult: 0.0
  }
  scale_param {
    filler {
      value: 1
    }
    bias_term: true
    bias_filler {
      value: 0
    }
  }
}
layer {
  name: "resx1_conv3"
  type: "Convolution"
  bottom: "resx1_conv2"
  top: "resx1_conv3"
  param {
    lr_mult: 1
    decay_mult: 0.0
  }
  convolution_param {
    num_output: 216
    kernel_size: 1
    stride: 1
    pad: 0
    group: 3
    bias_term: false
    weight_filler {
      type: "msra"
    }
  }
}
layer {
  name: "resx1_conv3_bn"
  type: "BatchNorm"
  bottom: "resx1_conv3"
  top: "resx1_conv3"
  param {
    lr_mult: 0
    decay_mult: 0
  }
  param {
    lr_mult: 0
    decay_mult: 0
  }
  param {
    lr_mult: 0
    decay_mult: 0
  }
}
layer {
  name: "resx1_conv3_scale"
  bottom: "resx1_conv3"
  top: "resx1_conv3"
  type: "Scale"
  param {
    lr_mult: 1
    decay_mult: 0.0
  }
  param {
    lr_mult: 2
    decay_mult: 0.0
  }
  scale_param {
    filler {
      value: 1
    }
    bias_term: true
    bias_filler {
      value: 0
    }
  }
}
layer {
  name: "resx1_concat"
  type: "Concat"
  bottom: "resx1_match_conv"
  bottom: "resx1_conv3"
  top: "resx1_concat"
  concat_param {
    axis: 1
  }
}
layer {
  name: "resx1_concat_relu"
  type: "ReLU"
  bottom: "resx1_concat"
  top: "resx1_concat"
}
layer {
  name: "resx2_conv1"
  type: "Convolution"
  bottom: "resx1_concat"
  top: "resx2_conv1"
   param {
    lr_mult: 1
    decay_mult: 1
  }
  convolution_param {
    num_output: 60
    kernel_size: 1
    stride: 1
    pad: 0
    group: 3
    bias_term: false
    weight_filler {
      type: "msra"
    }
  }
}
layer {
  name: "resx2_conv1_bn"
  type: "BatchNorm"
  bottom: "resx2_conv1"
  top: "resx2_conv1"
  param {
    lr_mult: 0
    decay_mult: 0
  }
  param {
    lr_mult: 0
    decay_mult: 0
  }
  param {
    lr_mult: 0
    decay_mult: 0
  }
}
layer {
  name: "resx2_conv1_scale"
  bottom: "resx2_conv1"
  top: "resx2_conv1"
  type: "Scale"
  param {
    lr_mult: 1
    decay_mult: 0.0
  }
  param {
    lr_mult: 2
    decay_mult: 0.0
  }
  scale_param {
    filler {
      value: 1
    }
    bias_term: true
    bias_filler {
      value: 0
    }
  }
}
layer {
  name: "resx2_conv1_relu"
  type: "ReLU"
  bottom: "resx2_conv1"
  top: "resx2_conv1"
}
layer {
  name: "shuffle2"
  type: "ShuffleChannel"
  bottom: "resx2_conv1"
  top: "shuffle2"
  shuffle_channel_param {
    group: 3
  }
}
layer {
  name: "resx2_conv2"
  type: "ConvolutionDepthwise"
  bottom: "shuffle2"
  top: "resx2_conv2"
  convolution_param {
    num_output: 60
    kernel_size: 3
    stride: 1
    pad: 1
    bias_term: false
    weight_filler {
      type: "msra"
    }
  }
}
layer {
  name: "resx2_conv2_bn"
  type: "BatchNorm"
  bottom: "resx2_conv2"
  top: "resx2_conv2"
  param {
    lr_mult: 0
    decay_mult: 0
  }
  param {
    lr_mult: 0
    decay_mult: 0
  }
  param {
    lr_mult: 0
    decay_mult: 0
  }
}
layer {
  name: "resx2_conv2_scale"
  bottom: "resx2_conv2"
  top: "resx2_conv2"
  type: "Scale"
  param {
    lr_mult: 1
    decay_mult: 0.0
  }
  param {
    lr_mult: 2
    decay_mult: 0.0
  }
  scale_param {
    filler {
      value: 1
    }
    bias_term: true
    bias_filler {
      value: 0
    }
  }
}
layer {
  name: "resx2_conv3"
  type: "Convolution"
  bottom: "resx2_conv2"
  top: "resx2_conv3"
  param {
    lr_mult: 1
    decay_mult: 1
  }
  convolution_param {
    num_output: 240
    kernel_size: 1
    stride: 1
    pad: 0
    group: 3
    bias_term: false
    weight_filler {
      type: "msra"
    }
  }
}
layer {
  name: "resx2_conv3_bn"
  type: "BatchNorm"
  bottom: "resx2_conv3"
  top: "resx2_conv3"
  param {
    lr_mult: 0
    decay_mult: 0
  }
  param {
    lr_mult: 0
    decay_mult: 0
  }
  param {
    lr_mult: 0
    decay_mult: 0
  }
}
layer {
  name: "resx2_conv3_scale"
  bottom: "resx2_conv3"
  top: "resx2_conv3"
  type: "Scale"
  param {
    lr_mult: 1
    decay_mult: 0.0
  }
  param {
    lr_mult: 2
    decay_mult: 0.0
  }
  scale_param {
    filler {
      value: 1
    }
    bias_term: true
    bias_filler {
      value: 0
    }
  }
}
layer {
  name: "resx2_elewise"
  type: "Eltwise"
  bottom: "resx1_concat"
  bottom: "resx2_conv3"
  top: "resx2_elewise"
  eltwise_param {
    operation: SUM
  }
}
layer {
  name: "resx2_elewise_relu"
  type: "ReLU"
  bottom: "resx2_elewise"
  top: "resx2_elewise"
}
layer {
  name: "resx3_conv1"
  type: "Convolution"
  bottom: "resx2_elewise"
  top: "resx3_conv1"
  param {
    lr_mult: 1
    decay_mult: 1
  }
  convolution_param {
    num_output: 60
    kernel_size: 1
    stride: 1
    pad: 0
    group: 3
    bias_term: false
    weight_filler {
      type: "msra"
    }
  }
}
layer {
  name: "resx3_conv1_bn"
  type: "BatchNorm"
  bottom: "resx3_conv1"
  top: "resx3_conv1"
  param {
    lr_mult: 0
    decay_mult: 0
  }
  param {
    lr_mult: 0
    decay_mult: 0
  }
  param {
    lr_mult: 0
    decay_mult: 0
  }
}
layer {
  name: "resx3_conv1_scale"
  bottom: "resx3_conv1"
  top: "resx3_conv1"
  type: "Scale"
  param {
    lr_mult: 1
    decay_mult: 0.0
  }
  param {
    lr_mult: 2
    decay_mult: 0.0
  }
  scale_param {
    filler {
      value: 1
    }
    bias_term: true
    bias_filler {
      value: 0
    }
  }
}
layer {
  name: "resx3_conv1_relu"
  type: "ReLU"
  bottom: "resx3_conv1"
  top: "resx3_conv1"
}
layer {
  name: "shuffle3"
  type: "ShuffleChannel"
  bottom: "resx3_conv1"
  top: "shuffle3"
  shuffle_channel_param {
    group: 3
  }
}
layer {
  name: "resx3_conv2"
  type: "ConvolutionDepthwise"
  bottom: "shuffle3"
  top: "resx3_conv2"
  convolution_param {
    num_output: 60
    kernel_size: 3
    stride: 1
    pad: 1
    bias_term: false
    weight_filler {
      type: "msra"
    }
  }
}
layer {
  name: "resx3_conv2_bn"
  type: "BatchNorm"
  bottom: "resx3_conv2"
  top: "resx3_conv2"
  param {
    lr_mult: 0
    decay_mult: 0
  }
  param {
    lr_mult: 0
    decay_mult: 0
  }
  param {
    lr_mult: 0
    decay_mult: 0
  }
}
layer {
  name: "resx3_conv2_scale"
  bottom: "resx3_conv2"
  top: "resx3_conv2"
  type: "Scale"
  param {
    lr_mult: 1
    decay_mult: 0.0
  }
  param {
    lr_mult: 2
    decay_mult: 0.0
  }
  scale_param {
    filler {
      value: 1
    }
    bias_term: true
    bias_filler {
      value: 0
    }
  }
}
layer {
  name: "resx3_conv3"
  type: "Convolution"
  bottom: "resx3_conv2"
  top: "resx3_conv3"
  param {
    lr_mult: 1
    decay_mult: 1
  }
  convolution_param {
    num_output: 240
    kernel_size: 1
    stride: 1
    pad: 0
    group: 3
    bias_term: false
    weight_filler {
      type: "msra"
    }
  }
}
layer {
  name: "resx3_conv3_bn"
  type: "BatchNorm"
  bottom: "resx3_conv3"
  top: "resx3_conv3"
  param {
    lr_mult: 0
    decay_mult: 0
  }
  param {
    lr_mult: 0
    decay_mult: 0
  }
  param {
    lr_mult: 0
    decay_mult: 0
  }
}
layer {
  name: "resx3_conv3_scale"
  bottom: "resx3_conv3"
  top: "resx3_conv3"
  type: "Scale"
  param {
    lr_mult: 1
    decay_mult: 0.0
  }
  param {
    lr_mult: 2
    decay_mult: 0.0
  }
  scale_param {
    filler {
      value: 1
    }
    bias_term: true
    bias_filler {
      value: 0
    }
  }
}
layer {
  name: "resx3_elewise"
  type: "Eltwise"
  bottom: "resx2_elewise"
  bottom: "resx3_conv3"
  top: "resx3_elewise"
  eltwise_param {
    operation: SUM
  }
}
layer {
  name: "resx3_elewise_relu"
  type: "ReLU"
  bottom: "resx3_elewise"
  top: "resx3_elewise"
}
layer {
  name: "resx4_conv1"
  type: "Convolution"
  bottom: "resx3_elewise"
  top: "resx4_conv1"
  param {
    lr_mult: 1
    decay_mult: 1
  }
  convolution_param {
    num_output: 60
    kernel_size: 1
    stride: 1
    pad: 0
    group: 3
    bias_term: false
    weight_filler {
      type: "msra"
    }
  }
}
layer {
  name: "resx4_conv1_bn"
  type: "BatchNorm"
  bottom: "resx4_conv1"
  top: "resx4_conv1"
  param {
    lr_mult: 0
    decay_mult: 0
  }
  param {
    lr_mult: 0
    decay_mult: 0
  }
  param {
    lr_mult: 0
    decay_mult: 0
  }
}
layer {
  name: "resx4_conv1_scale"
  bottom: "resx4_conv1"
  top: "resx4_conv1"
  type: "Scale"
  param {
    lr_mult: 1
    decay_mult: 0.0
  }
  param {
    lr_mult: 2
    decay_mult: 0.0
  }
  scale_param {
    filler {
      value: 1
    }
    bias_term: true
    bias_filler {
      value: 0
    }
  }
}
layer {
  name: "resx4_conv1_relu"
  type: "ReLU"
  bottom: "resx4_conv1"
  top: "resx4_conv1"
}
layer {
  name: "shuffle4"
  type: "ShuffleChannel"
  bottom: "resx4_conv1"
  top: "shuffle4"
  shuffle_channel_param {
    group: 3
  }
}
layer {
  name: "resx4_conv2"
  type: "ConvolutionDepthwise"
  bottom: "shuffle4"
  top: "resx4_conv2"
  convolution_param {
    num_output: 60
    kernel_size: 3
    stride: 1
    pad: 1
    bias_term: false
    weight_filler {
      type: "msra"
    }
  }
}
layer {
  name: "resx4_conv2_bn"
  type: "BatchNorm"
  bottom: "resx4_conv2"
  top: "resx4_conv2"
  param {
    lr_mult: 0
    decay_mult: 0
  }
  param {
    lr_mult: 0
    decay_mult: 0
  }
  param {
    lr_mult: 0
    decay_mult: 0
  }
}
layer {
  name: "resx4_conv2_scale"
  bottom: "resx4_conv2"
  top: "resx4_conv2"
  type: "Scale"
  param {
    lr_mult: 1
    decay_mult: 0.0
  }
  param {
    lr_mult: 2
    decay_mult: 0.0
  }
  scale_param {
    filler {
      value: 1
    }
    bias_term: true
    bias_filler {
      value: 0
    }
  }
}
layer {
  name: "resx4_conv3"
  type: "Convolution"
  bottom: "resx4_conv2"
  top: "resx4_conv3"
  param {
    lr_mult: 1
    decay_mult: 1
  }
  convolution_param {
    num_output: 240
    kernel_size: 1
    stride: 1
    pad: 0
    group: 3
    bias_term: false
    weight_filler {
      type: "msra"
    }
  }
}
layer {
  name: "resx4_conv3_bn"
  type: "BatchNorm"
  bottom: "resx4_conv3"
  top: "resx4_conv3"
  param {
    lr_mult: 0
    decay_mult: 0
  }
  param {
    lr_mult: 0
    decay_mult: 0
  }
  param {
    lr_mult: 0
    decay_mult: 0
  }
}
layer {
  name: "resx4_conv3_scale"
  bottom: "resx4_conv3"
  top: "resx4_conv3"
  type: "Scale"
  param {
    lr_mult: 1
    decay_mult: 0.0
  }
  param {
    lr_mult: 2
    decay_mult: 0.0
  }
  scale_param {
    filler {
      value: 1
    }
    bias_term: true
    bias_filler {
      value: 0
    }
  }
}
layer {
  name: "resx4_elewise"
  type: "Eltwise"
  bottom: "resx3_elewise"
  bottom: "resx4_conv3"
  top: "resx4_elewise"
  eltwise_param {
    operation: SUM
  }
}
layer {
  name: "resx4_elewise_relu"
  type: "ReLU"
  bottom: "resx4_elewise"
  top: "resx4_elewise"
}
layer {
  name: "resx5_match_conv"
  type: "Pooling"
  bottom: "resx4_elewise"
  top: "resx5_match_conv"
  pooling_param {
    pool: AVE
    kernel_size: 3
    stride: 2
  }
}
layer {
  name: "resx5_conv1"
  type: "Convolution"
  bottom: "resx4_elewise"
  top: "resx5_conv1"
  param {
    lr_mult: 1
    decay_mult: 1
  }
  convolution_param {
    num_output: 60
    kernel_size: 1
    stride: 1
    pad: 0
    group: 3
    bias_term: false
    weight_filler {
      type: "msra"
    }
  }
}
layer {
  name: "resx5_conv1_bn"
  type: "BatchNorm"
  bottom: "resx5_conv1"
  top: "resx5_conv1"
  param {
    lr_mult: 0
    decay_mult: 0
  }
  param {
    lr_mult: 0
    decay_mult: 0
  }
  param {
    lr_mult: 0
    decay_mult: 0
  }
}
layer {
  name: "resx5_conv1_scale"
  bottom: "resx5_conv1"
  top: "resx5_conv1"
  type: "Scale"
  param {
    lr_mult: 1
    decay_mult: 0.0
  }
  param {
    lr_mult: 2
    decay_mult: 0.0
  }
  scale_param {
    filler {
      value: 1
    }
    bias_term: true
    bias_filler {
      value: 0
    }
  }
}
layer {
  name: "resx5_conv1_relu"
  type: "ReLU"
  bottom: "resx5_conv1"
  top: "resx5_conv1"
}
layer {
  name: "shuffle5"
  type: "ShuffleChannel"
  bottom: "resx5_conv1"
  top: "shuffle5"
  shuffle_channel_param {
    group: 3
  }
}
layer {
  name: "resx5_conv2"
  type: "ConvolutionDepthwise"
  bottom: "shuffle5"
  top: "resx5_conv2"
  convolution_param {
    num_output: 60
    kernel_size: 3
    stride: 2
    pad: 1
    bias_term: false
    weight_filler {
      type: "msra"
    }
  }
}
layer {
  name: "resx5_conv2_bn"
  type: "BatchNorm"
  bottom: "resx5_conv2"
  top: "resx5_conv2"
  param {
    lr_mult: 0
    decay_mult: 0
  }
  param {
    lr_mult: 0
    decay_mult: 0
  }
  param {
    lr_mult: 0
    decay_mult: 0
  }
}
layer {
  name: "resx5_conv2_scale"
  bottom: "resx5_conv2"
  top: "resx5_conv2"
  type: "Scale"
  param {
    lr_mult: 1
    decay_mult: 0.0
  }
  param {
    lr_mult: 2
    decay_mult: 0.0
  }
  scale_param {
    filler {
      value: 1
    }
    bias_term: true
    bias_filler {
      value: 0
    }
  }
}
layer {
  name: "resx5_conv3"
  type: "Convolution"
  bottom: "resx5_conv2"
  top: "resx5_conv3"
  param {
    lr_mult: 1
    decay_mult: 1
  }
  convolution_param {
    num_output: 240
    kernel_size: 1
    stride: 1
    pad: 0
    group: 3
    bias_term: false
    weight_filler {
      type: "msra"
    }
  }
}
layer {
  name: "resx5_conv3_bn"
  type: "BatchNorm"
  bottom: "resx5_conv3"
  top: "resx5_conv3"
  param {
    lr_mult: 0
    decay_mult: 0
  }
  param {
    lr_mult: 0
    decay_mult: 0
  }
  param {
    lr_mult: 0
    decay_mult: 0
  }
}
layer {
  name: "resx5_conv3_scale"
  bottom: "resx5_conv3"
  top: "resx5_conv3"
  type: "Scale"
  param {
    lr_mult: 1
    decay_mult: 0.0
  }
  param {
    lr_mult: 2
    decay_mult: 0.0
  }
  scale_param {
    filler {
      value: 1
    }
    bias_term: true
    bias_filler {
      value: 0
    }
  }
}
layer {
  name: "resx5_concat"
  type: "Concat"
  bottom: "resx5_match_conv"
  bottom: "resx5_conv3"
  top: "resx5_concat"
}
layer {
  name: "resx5_concat_relu"
  type: "ReLU"
  bottom: "resx5_concat"
  top: "resx5_concat"
}
layer {
  name: "resx6_conv1"
  type: "Convolution"
  bottom: "resx5_concat"
  top: "resx6_conv1"
  param {
    lr_mult: 1
    decay_mult: 1
  }
  convolution_param {
    num_output: 120
    kernel_size: 1
    stride: 1
    pad: 0
    group: 3
    bias_term: false
    weight_filler {
      type: "msra"
    }
  }
}
layer {
  name: "resx6_conv1_bn"
  type: "BatchNorm"
  bottom: "resx6_conv1"
  top: "resx6_conv1"
  param {
    lr_mult: 0
    decay_mult: 0
  }
  param {
    lr_mult: 0
    decay_mult: 0
  }
  param {
    lr_mult: 0
    decay_mult: 0
  }
}
layer {
  name: "resx6_conv1_scale"
  bottom: "resx6_conv1"
  top: "resx6_conv1"
  type: "Scale"
  param {
    lr_mult: 1
    decay_mult: 0.0
  }
  param {
    lr_mult: 2
    decay_mult: 0.0
  }
  scale_param {
    filler {
      value: 1
    }
    bias_term: true
    bias_filler {
      value: 0
    }
  }
}
layer {
  name: "resx6_conv1_relu"
  type: "ReLU"
  bottom: "resx6_conv1"
  top: "resx6_conv1"
}
layer {
  name: "shuffle6"
  type: "ShuffleChannel"
  bottom: "resx6_conv1"
  top: "shuffle6"
  shuffle_channel_param {
    group: 3
  }
}
layer {
  name: "resx6_conv2"
  type: "ConvolutionDepthwise"
  bottom: "shuffle6"
  top: "resx6_conv2"
  convolution_param {
    num_output: 120
    kernel_size: 3
    stride: 1
    pad: 1
    bias_term: false
    weight_filler {
      type: "msra"
    }
  }
}
layer {
  name: "resx6_conv2_bn"
  type: "BatchNorm"
  bottom: "resx6_conv2"
  top: "resx6_conv2"
  param {
    lr_mult: 0
    decay_mult: 0
  }
  param {
    lr_mult: 0
    decay_mult: 0
  }
  param {
    lr_mult: 0
    decay_mult: 0
  }
}
layer {
  name: "resx6_conv2_scale"
  bottom: "resx6_conv2"
  top: "resx6_conv2"
  type: "Scale"
  param {
    lr_mult: 1
    decay_mult: 0.0
  }
  param {
    lr_mult: 2
    decay_mult: 0.0
  }
  scale_param {
    filler {
      value: 1
    }
    bias_term: true
    bias_filler {
      value: 0
    }
  }
}
layer {
  name: "resx6_conv3"
  type: "Convolution"
  bottom: "resx6_conv2"
  top: "resx6_conv3"
  param {
    lr_mult: 1
    decay_mult: 1
  }
  convolution_param {
    num_output: 480
    kernel_size: 1
    stride: 1
    pad: 0
    group: 3
    bias_term: false
    weight_filler {
      type: "msra"
    }
  }
}
layer {
  name: "resx6_conv3_bn"
  type: "BatchNorm"
  bottom: "resx6_conv3"
  top: "resx6_conv3"
  param {
    lr_mult: 0
    decay_mult: 0
  }
  param {
    lr_mult: 0
    decay_mult: 0
  }
  param {
    lr_mult: 0
    decay_mult: 0
  }
}
layer {
  name: "resx6_conv3_scale"
  bottom: "resx6_conv3"
  top: "resx6_conv3"
  type: "Scale"
  param {
    lr_mult: 1
    decay_mult: 0.0
  }
  param {
    lr_mult: 2
    decay_mult: 0.0
  }
  scale_param {
    filler {
      value: 1
    }
    bias_term: true
    bias_filler {
      value: 0
    }
  }
}
layer {
  name: "resx6_elewise"
  type: "Eltwise"
  bottom: "resx5_concat"
  bottom: "resx6_conv3"
  top: "resx6_elewise"
  eltwise_param {
    operation: SUM
  }
}
layer {
  name: "resx6_elewise_relu"
  type: "ReLU"
  bottom: "resx6_elewise"
  top: "resx6_elewise"
}
layer {
  name: "resx7_conv1"
  type: "Convolution"
  bottom: "resx6_elewise"
  top: "resx7_conv1"
  param {
    lr_mult: 1
    decay_mult: 1
  }
  convolution_param {
    num_output: 120
    kernel_size: 1
    stride: 1
    pad: 0
    group: 3
    bias_term: false
    weight_filler {
      type: "msra"
    }
  }
}
layer {
  name: "resx7_conv1_bn"
  type: "BatchNorm"
  bottom: "resx7_conv1"
  top: "resx7_conv1"
  param {
    lr_mult: 0
    decay_mult: 0
  }
  param {
    lr_mult: 0
    decay_mult: 0
  }
  param {
    lr_mult: 0
    decay_mult: 0
  }
}
layer {
  name: "resx7_conv1_scale"
  bottom: "resx7_conv1"
  top: "resx7_conv1"
  type: "Scale"
  param {
    lr_mult: 1
    decay_mult: 0.0
  }
  param {
    lr_mult: 2
    decay_mult: 0.0
  }
  scale_param {
    filler {
      value: 1
    }
    bias_term: true
    bias_filler {
      value: 0
    }
  }
}
layer {
  name: "resx7_conv1_relu"
  type: "ReLU"
  bottom: "resx7_conv1"
  top: "resx7_conv1"
}
layer {
  name: "shuffle7"
  type: "ShuffleChannel"
  bottom: "resx7_conv1"
  top: "shuffle7"
  shuffle_channel_param {
    group: 3
  }
}
layer {
  name: "resx7_conv2"
  type: "ConvolutionDepthwise"
  bottom: "shuffle7"
  top: "resx7_conv2"
  convolution_param {
    num_output: 120
    kernel_size: 3
    stride: 1
    pad: 1
    bias_term: false
    weight_filler {
      type: "msra"
    }
  }
}
layer {
  name: "resx7_conv2_bn"
  type: "BatchNorm"
  bottom: "resx7_conv2"
  top: "resx7_conv2"
  param {
    lr_mult: 0
    decay_mult: 0
  }
  param {
    lr_mult: 0
    decay_mult: 0
  }
  param {
    lr_mult: 0
    decay_mult: 0
  }
}
layer {
  name: "resx7_conv2_scale"
  bottom: "resx7_conv2"
  top: "resx7_conv2"
  type: "Scale"
  param {
    lr_mult: 1
    decay_mult: 0.0
  }
  param {
    lr_mult: 2
    decay_mult: 0.0
  }
  scale_param {
    filler {
      value: 1
    }
    bias_term: true
    bias_filler {
      value: 0
    }
  }
}
layer {
  name: "resx7_conv3"
  type: "Convolution"
  bottom: "resx7_conv2"
  top: "resx7_conv3"
  param {
    lr_mult: 1
    decay_mult: 1
  }
  convolution_param {
    num_output: 480
    kernel_size: 1
    stride: 1
    pad: 0
    group: 3
    bias_term: false
    weight_filler {
      type: "msra"
    }
  }
}
layer {
  name: "resx7_conv3_bn"
  type: "BatchNorm"
  bottom: "resx7_conv3"
  top: "resx7_conv3"
  param {
    lr_mult: 0
    decay_mult: 0
  }
  param {
    lr_mult: 0
    decay_mult: 0
  }
  param {
    lr_mult: 0
    decay_mult: 0
  }
}
layer {
  name: "resx7_conv3_scale"
  bottom: "resx7_conv3"
  top: "resx7_conv3"
  type: "Scale"
  param {
    lr_mult: 1
    decay_mult: 0.0
  }
  param {
    lr_mult: 2
    decay_mult: 0.0
  }
  scale_param {
    filler {
      value: 1
    }
    bias_term: true
    bias_filler {
      value: 0
    }
  }
}
layer {
  name: "resx7_elewise"
  type: "Eltwise"
  bottom: "resx6_elewise"
  bottom: "resx7_conv3"
  top: "resx7_elewise"
  eltwise_param {
    operation: SUM
  }
}
layer {
  name: "resx7_elewise_relu"
  type: "ReLU"
  bottom: "resx7_elewise"
  top: "resx7_elewise"
}
layer {
  name: "resx8_conv1"
  type: "Convolution"
  bottom: "resx7_elewise"
  top: "resx8_conv1"
  param {
    lr_mult: 1
    decay_mult: 1
  }
  convolution_param {
    num_output: 120
    kernel_size: 1
    stride: 1
    pad: 0
    group: 3
    bias_term: false
    weight_filler {
      type: "msra"
    }
  }
}
layer {
  name: "resx8_conv1_bn"
  type: "BatchNorm"
  bottom: "resx8_conv1"
  top: "resx8_conv1"
  param {
    lr_mult: 0
    decay_mult: 0
  }
  param {
    lr_mult: 0
    decay_mult: 0
  }
  param {
    lr_mult: 0
    decay_mult: 0
  }
}
layer {
  name: "resx8_conv1_scale"
  bottom: "resx8_conv1"
  top: "resx8_conv1"
  type: "Scale"
  param {
    lr_mult: 1
    decay_mult: 0.0
  }
  param {
    lr_mult: 2
    decay_mult: 0.0
  }
  scale_param {
    filler {
      value: 1
    }
    bias_term: true
    bias_filler {
      value: 0
    }
  }
}
layer {
  name: "resx8_conv1_relu"
  type: "ReLU"
  bottom: "resx8_conv1"
  top: "resx8_conv1"
}
layer {
  name: "shuffle8"
  type: "ShuffleChannel"
  bottom: "resx8_conv1"
  top: "shuffle8"
  shuffle_channel_param {
    group: 3
  }
}
layer {
  name: "resx8_conv2"
  type: "ConvolutionDepthwise"
  bottom: "shuffle8"
  top: "resx8_conv2"
  convolution_param {
    num_output: 120
    kernel_size: 3
    stride: 1
    pad: 1
    bias_term: false
    weight_filler {
      type: "msra"
    }
  }
}
layer {
  name: "resx8_conv2_bn"
  type: "BatchNorm"
  bottom: "resx8_conv2"
  top: "resx8_conv2"
  param {
    lr_mult: 0
    decay_mult: 0
  }
  param {
    lr_mult: 0
    decay_mult: 0
  }
  param {
    lr_mult: 0
    decay_mult: 0
  }
}
layer {
  name: "resx8_conv2_scale"
  bottom: "resx8_conv2"
  top: "resx8_conv2"
  type: "Scale"
  param {
    lr_mult: 1
    decay_mult: 0.0
  }
  param {
    lr_mult: 2
    decay_mult: 0.0
  }
  scale_param {
    filler {
      value: 1
    }
    bias_term: true
    bias_filler {
      value: 0
    }
  }
}
layer {
  name: "resx8_conv3"
  type: "Convolution"
  bottom: "resx8_conv2"
  top: "resx8_conv3"
  param {
    lr_mult: 1
    decay_mult: 1
  }
  convolution_param {
    num_output: 480
    kernel_size: 1
    stride: 1
    pad: 0
    group: 3
    bias_term: false
    weight_filler {
      type: "msra"
    }
  }
}
layer {
  name: "resx8_conv3_bn"
  type: "BatchNorm"
  bottom: "resx8_conv3"
  top: "resx8_conv3"
  param {
    lr_mult: 0
    decay_mult: 0
  }
  param {
    lr_mult: 0
    decay_mult: 0
  }
  param {
    lr_mult: 0
    decay_mult: 0
  }
}
layer {
  name: "resx8_conv3_scale"
  bottom: "resx8_conv3"
  top: "resx8_conv3"
  type: "Scale"
  param {
    lr_mult: 1
    decay_mult: 0.0
  }
  param {
    lr_mult: 2
    decay_mult: 0.0
  }
  scale_param {
    filler {
      value: 1
    }
    bias_term: true
    bias_filler {
      value: 0
    }
  }
}
layer {
  name: "resx8_elewise"
  type: "Eltwise"
  bottom: "resx7_elewise"
  bottom: "resx8_conv3"
  top: "resx8_elewise"
  eltwise_param {
    operation: SUM
  }
}
layer {
  name: "resx8_elewise_relu"
  type: "ReLU"
  bottom: "resx8_elewise"
  top: "resx8_elewise"
}
layer {
  name: "resx9_conv1"
  type: "Convolution"
  bottom: "resx8_elewise"
  top: "resx9_conv1"
  param {
    lr_mult: 1
    decay_mult: 1
  }
  convolution_param {
    num_output: 120
    kernel_size: 1
    stride: 1
    pad: 0
    group: 3
    bias_term: false
    weight_filler {
      type: "msra"
    }
  }
}
layer {
  name: "resx9_conv1_bn"
  type: "BatchNorm"
  bottom: "resx9_conv1"
  top: "resx9_conv1"
  param {
    lr_mult: 0
    decay_mult: 0
  }
  param {
    lr_mult: 0
    decay_mult: 0
  }
  param {
    lr_mult: 0
    decay_mult: 0
  }
}
layer {
  name: "resx9_conv1_scale"
  bottom: "resx9_conv1"
  top: "resx9_conv1"
  type: "Scale"
  param {
    lr_mult: 1
    decay_mult: 0.0
  }
  param {
    lr_mult: 2
    decay_mult: 0.0
  }
  scale_param {
    filler {
      value: 1
    }
    bias_term: true
    bias_filler {
      value: 0
    }
  }
}
layer {
  name: "resx9_conv1_relu"
  type: "ReLU"
  bottom: "resx9_conv1"
  top: "resx9_conv1"
}
layer {
  name: "shuffle9"
  type: "ShuffleChannel"
  bottom: "resx9_conv1"
  top: "shuffle9"
  shuffle_channel_param {
    group: 3
  }
}
layer {
  name: "resx9_conv2"
  type: "ConvolutionDepthwise"
  bottom: "shuffle9"
  top: "resx9_conv2"
  convolution_param {
    num_output: 120
    kernel_size: 3
    stride: 1
    pad: 1
    bias_term: false
    weight_filler {
      type: "msra"
    }
  }
}
layer {
  name: "resx9_conv2_bn"
  type: "BatchNorm"
  bottom: "resx9_conv2"
  top: "resx9_conv2"
  param {
    lr_mult: 0
    decay_mult: 0
  }
  param {
    lr_mult: 0
    decay_mult: 0
  }
  param {
    lr_mult: 0
    decay_mult: 0
  }
}
layer {
  name: "resx9_conv2_scale"
  bottom: "resx9_conv2"
  top: "resx9_conv2"
  type: "Scale"
  param {
    lr_mult: 1
    decay_mult: 0.0
  }
  param {
    lr_mult: 2
    decay_mult: 0.0
  }
  scale_param {
    filler {
      value: 1
    }
    bias_term: true
    bias_filler {
      value: 0
    }
  }
}
layer {
  name: "resx9_conv3"
  type: "Convolution"
  bottom: "resx9_conv2"
  top: "resx9_conv3"
  param {
    lr_mult: 1
    decay_mult: 1
  }
  convolution_param {
    num_output: 480
    kernel_size: 1
    stride: 1
    pad: 0
    group: 3
    bias_term: false
    weight_filler {
      type: "msra"
    }
  }
}
layer {
  name: "resx9_conv3_bn"
  type: "BatchNorm"
  bottom: "resx9_conv3"
  top: "resx9_conv3"
  param {
    lr_mult: 0
    decay_mult: 0
  }
  param {
    lr_mult: 0
    decay_mult: 0
  }
  param {
    lr_mult: 0
    decay_mult: 0
  }
}
layer {
  name: "resx9_conv3_scale"
  bottom: "resx9_conv3"
  top: "resx9_conv3"
  type: "Scale"
  param {
    lr_mult: 1
    decay_mult: 0.0
  }
  param {
    lr_mult: 2
    decay_mult: 0.0
  }
  scale_param {
    filler {
      value: 1
    }
    bias_term: true
    bias_filler {
      value: 0
    }
  }
}
layer {
  name: "resx9_elewise"
  type: "Eltwise"
  bottom: "resx8_elewise"
  bottom: "resx9_conv3"
  top: "resx9_elewise"
  eltwise_param {
    operation: SUM
  }
}
layer {
  name: "resx9_elewise_relu"
  type: "ReLU"
  bottom: "resx9_elewise"
  top: "resx9_elewise"
}
layer {
  name: "resx10_conv1"
  type: "Convolution"
  bottom: "resx9_elewise"
  top: "resx10_conv1"
  param {
    lr_mult: 1
    decay_mult: 1
  }
  convolution_param {
    num_output: 120
    kernel_size: 1
    stride: 1
    pad: 0
    group: 3
    bias_term: false
    weight_filler {
      type: "msra"
    }
  }
}
layer {
  name: "resx10_conv1_bn"
  type: "BatchNorm"
  bottom: "resx10_conv1"
  top: "resx10_conv1"
  param {
    lr_mult: 0
    decay_mult: 0
  }
  param {
    lr_mult: 0
    decay_mult: 0
  }
  param {
    lr_mult: 0
    decay_mult: 0
  }
}
layer {
  name: "resx10_conv1_scale"
  bottom: "resx10_conv1"
  top: "resx10_conv1"
  type: "Scale"
  param {
    lr_mult: 1
    decay_mult: 0.0
  }
  param {
    lr_mult: 2
    decay_mult: 0.0
  }
  scale_param {
    filler {
      value: 1
    }
    bias_term: true
    bias_filler {
      value: 0
    }
  }
}
layer {
  name: "resx10_conv1_relu"
  type: "ReLU"
  bottom: "resx10_conv1"
  top: "resx10_conv1"
}
layer {
  name: "shuffle10"
  type: "ShuffleChannel"
  bottom: "resx10_conv1"
  top: "shuffle10"
  shuffle_channel_param {
    group: 3
  }
}
layer {
  name: "resx10_conv2"
  type: "ConvolutionDepthwise"
  bottom: "shuffle10"
  top: "resx10_conv2"
  convolution_param {
    num_output: 120
    kernel_size: 3
    stride: 1
    pad: 1
    bias_term: false
    weight_filler {
      type: "msra"
    }
  }
}
layer {
  name: "resx10_conv2_bn"
  type: "BatchNorm"
  bottom: "resx10_conv2"
  top: "resx10_conv2"
  param {
    lr_mult: 0
    decay_mult: 0
  }
  param {
    lr_mult: 0
    decay_mult: 0
  }
  param {
    lr_mult: 0
    decay_mult: 0
  }
}
layer {
  name: "resx10_conv2_scale"
  bottom: "resx10_conv2"
  top: "resx10_conv2"
  type: "Scale"
  param {
    lr_mult: 1
    decay_mult: 0.0
  }
  param {
    lr_mult: 2
    decay_mult: 0.0
  }
  scale_param {
    filler {
      value: 1
    }
    bias_term: true
    bias_filler {
      value: 0
    }
  }
}
layer {
  name: "resx10_conv3"
  type: "Convolution"
  bottom: "resx10_conv2"
  top: "resx10_conv3"
  param {
    lr_mult: 1
    decay_mult: 1
  }
  convolution_param {
    num_output: 480
    kernel_size: 1
    stride: 1
    pad: 0
    group: 3
    bias_term: false
    weight_filler {
      type: "msra"
    }
  }
}
layer {
  name: "resx10_conv3_bn"
  type: "BatchNorm"
  bottom: "resx10_conv3"
  top: "resx10_conv3"
  param {
    lr_mult: 0
    decay_mult: 0
  }
  param {
    lr_mult: 0
    decay_mult: 0
  }
  param {
    lr_mult: 0
    decay_mult: 0
  }
}
layer {
  name: "resx10_conv3_scale"
  bottom: "resx10_conv3"
  top: "resx10_conv3"
  type: "Scale"
  param {
    lr_mult: 1
    decay_mult: 0.0
  }
  param {
    lr_mult: 2
    decay_mult: 0.0
  }
  scale_param {
    filler {
      value: 1
    }
    bias_term: true
    bias_filler {
      value: 0
    }
  }
}
layer {
  name: "resx10_elewise"
  type: "Eltwise"
  bottom: "resx9_elewise"
  bottom: "resx10_conv3"
  top: "resx10_elewise"
  eltwise_param {
    operation: SUM
  }
}
layer {
  name: "resx10_elewise_relu"
  type: "ReLU"
  bottom: "resx10_elewise"
  top: "resx10_elewise"
}
layer {
  name: "resx11_conv1"
  type: "Convolution"
  bottom: "resx10_elewise"
  top: "resx11_conv1"
  param {
    lr_mult: 1
    decay_mult: 1
  }
  convolution_param {
    num_output: 120
    kernel_size: 1
    stride: 1
    pad: 0
    group: 3
    bias_term: false
    weight_filler {
      type: "msra"
    }
  }
}
layer {
  name: "resx11_conv1_bn"
  type: "BatchNorm"
  bottom: "resx11_conv1"
  top: "resx11_conv1"
  param {
    lr_mult: 0
    decay_mult: 0
  }
  param {
    lr_mult: 0
    decay_mult: 0
  }
  param {
    lr_mult: 0
    decay_mult: 0
  }
}
layer {
  name: "resx11_conv1_scale"
  bottom: "resx11_conv1"
  top: "resx11_conv1"
  type: "Scale"
  param {
    lr_mult: 1
    decay_mult: 0.0
  }
  param {
    lr_mult: 2
    decay_mult: 0.0
  }
  scale_param {
    filler {
      value: 1
    }
    bias_term: true
    bias_filler {
      value: 0
    }
  }
}
layer {
  name: "resx11_conv1_relu"
  type: "ReLU"
  bottom: "resx11_conv1"
  top: "resx11_conv1"
}
layer {
  name: "shuffle11"
  type: "ShuffleChannel"
  bottom: "resx11_conv1"
  top: "shuffle11"
  shuffle_channel_param {
    group: 3
  }
}
layer {
  name: "resx11_conv2"
  type: "ConvolutionDepthwise"
  bottom: "shuffle11"
  top: "resx11_conv2"
  convolution_param {
    num_output: 120
    kernel_size: 3
    stride: 1
    pad: 1
    bias_term: false
    weight_filler {
      type: "msra"
    }
  }
}
layer {
  name: "resx11_conv2_bn"
  type: "BatchNorm"
  bottom: "resx11_conv2"
  top: "resx11_conv2"
  param {
    lr_mult: 0
    decay_mult: 0
  }
  param {
    lr_mult: 0
    decay_mult: 0
  }
  param {
    lr_mult: 0
    decay_mult: 0
  }
}
layer {
  name: "resx11_conv2_scale"
  bottom: "resx11_conv2"
  top: "resx11_conv2"
  type: "Scale"
  param {
    lr_mult: 1
    decay_mult: 0.0
  }
  param {
    lr_mult: 2
    decay_mult: 0.0
  }
  scale_param {
    filler {
      value: 1
    }
    bias_term: true
    bias_filler {
      value: 0
    }
  }
}
layer {
  name: "resx11_conv3"
  type: "Convolution"
  bottom: "resx11_conv2"
  top: "resx11_conv3"
  param {
    lr_mult: 1
    decay_mult: 1
  }
  convolution_param {
    num_output: 480
    kernel_size: 1
    stride: 1
    pad: 0
    group: 3
    bias_term: false
    weight_filler {
      type: "msra"
    }
  }
}
layer {
  name: "resx11_conv3_bn"
  type: "BatchNorm"
  bottom: "resx11_conv3"
  top: "resx11_conv3"
  param {
    lr_mult: 0
    decay_mult: 0
  }
  param {
    lr_mult: 0
    decay_mult: 0
  }
  param {
    lr_mult: 0
    decay_mult: 0
  }
}
layer {
  name: "resx11_conv3_scale"
  bottom: "resx11_conv3"
  top: "resx11_conv3"
  type: "Scale"
  param {
    lr_mult: 1
    decay_mult: 0.0
  }
  param {
    lr_mult: 2
    decay_mult: 0.0
  }
  scale_param {
    filler {
      value: 1
    }
    bias_term: true
    bias_filler {
      value: 0
    }
  }
}
layer {
  name: "resx11_elewise"
  type: "Eltwise"
  bottom: "resx10_elewise"
  bottom: "resx11_conv3"
  top: "resx11_elewise"
  eltwise_param {
    operation: SUM
  }
}
layer {
  name: "resx11_elewise_relu"
  type: "ReLU"
  bottom: "resx11_elewise"
  top: "resx11_elewise"
}
layer {
  name: "resx12_conv1"
  type: "Convolution"
  bottom: "resx11_elewise"
  top: "resx12_conv1"
  param {
    lr_mult: 1
    decay_mult: 1
  }
  convolution_param {
    num_output: 120
    kernel_size: 1
    stride: 1
    pad: 0
    group: 3
    bias_term: false
    weight_filler {
      type: "msra"
    }
  }
}
layer {
  name: "resx12_conv1_bn"
  type: "BatchNorm"
  bottom: "resx12_conv1"
  top: "resx12_conv1"
  param {
    lr_mult: 0
    decay_mult: 0
  }
  param {
    lr_mult: 0
    decay_mult: 0
  }
  param {
    lr_mult: 0
    decay_mult: 0
  }
}
layer {
  name: "resx12_conv1_scale"
  bottom: "resx12_conv1"
  top: "resx12_conv1"
  type: "Scale"
  param {
    lr_mult: 1
    decay_mult: 0.0
  }
  param {
    lr_mult: 2
    decay_mult: 0.0
  }
  scale_param {
    filler {
      value: 1
    }
    bias_term: true
    bias_filler {
      value: 0
    }
  }
}
layer {
  name: "resx12_conv1_relu"
  type: "ReLU"
  bottom: "resx12_conv1"
  top: "resx12_conv1"
}
layer {
  name: "shuffle12"
  type: "ShuffleChannel"
  bottom: "resx12_conv1"
  top: "shuffle12"
  shuffle_channel_param {
    group: 3
  }
}
layer {
  name: "resx12_conv2"
  type: "ConvolutionDepthwise"
  bottom: "shuffle12"
  top: "resx12_conv2"
  convolution_param {
    num_output: 120
    kernel_size: 3
    stride: 1
    pad: 1
    bias_term: false
    weight_filler {
      type: "msra"
    }
  }
}
layer {
  name: "resx12_conv2_bn"
  type: "BatchNorm"
  bottom: "resx12_conv2"
  top: "resx12_conv2"
  param {
    lr_mult: 0
    decay_mult: 0
  }
  param {
    lr_mult: 0
    decay_mult: 0
  }
  param {
    lr_mult: 0
    decay_mult: 0
  }
}
layer {
  name: "resx12_conv2_scale"
  bottom: "resx12_conv2"
  top: "resx12_conv2"
  type: "Scale"
  param {
    lr_mult: 1
    decay_mult: 0.0
  }
  param {
    lr_mult: 2
    decay_mult: 0.0
  }
  scale_param {
    filler {
      value: 1
    }
    bias_term: true
    bias_filler {
      value: 0
    }
  }
}
layer {
  name: "resx12_conv3"
  type: "Convolution"
  bottom: "resx12_conv2"
  top: "resx12_conv3"
  param {
    lr_mult: 1
    decay_mult: 1
  }
  convolution_param {
    num_output: 480
    kernel_size: 1
    stride: 1
    pad: 0
    group: 3
    bias_term: false
    weight_filler {
      type: "msra"
    }
  }
}
layer {
  name: "resx12_conv3_bn"
  type: "BatchNorm"
  bottom: "resx12_conv3"
  top: "resx12_conv3"
  param {
    lr_mult: 0
    decay_mult: 0
  }
  param {
    lr_mult: 0
    decay_mult: 0
  }
  param {
    lr_mult: 0
    decay_mult: 0
  }
}
layer {
  name: "resx12_conv3_scale"
  bottom: "resx12_conv3"
  top: "resx12_conv3"
  type: "Scale"
  param {
    lr_mult: 1
    decay_mult: 0.0
  }
  param {
    lr_mult: 2
    decay_mult: 0.0
  }
  scale_param {
    filler {
      value: 1
    }
    bias_term: true
    bias_filler {
      value: 0
    }
  }
}
layer {
  name: "resx12_elewise"
  type: "Eltwise"
  bottom: "resx11_elewise"
  bottom: "resx12_conv3"
  top: "resx12_elewise"
  eltwise_param {
    operation: SUM
  }
}
layer {
  name: "resx12_elewise_relu"
  type: "ReLU"
  bottom: "resx12_elewise"
  top: "resx12_elewise"
}
layer {
  name: "conv13_1"
  type: "Convolution"
  bottom: "resx12_elewise"
  top: "conv13_1"
  param {
    lr_mult: 1
    decay_mult: 1
  }
  convolution_param {
    num_output: 480
    bias_term: false
    pad: 1
    kernel_size: 3
    stride: 2
    group: 3 # 512
    engine: CAFFE
    weight_filler {
      type: "msra"
    }
  }
}
layer {
  name: "conv13_1/bn"
  type: "BatchNorm"
  bottom: "conv13_1"
  top: "conv13_1"
  param {
    lr_mult: 0
    decay_mult: 0
  }
  param {
    lr_mult: 0
    decay_mult: 0
  }
  param {
    lr_mult: 0
    decay_mult: 0
  }
}
layer {
  name: "conv13_1/scale"
  type: "Scale"
  bottom: "conv13_1"
  top: "conv13_1"
  param {
    lr_mult: 1
    decay_mult: 0.0
  }
  param {
    lr_mult: 2
    decay_mult: 0.0
  }
  scale_param {
    filler {
      value: 1
    }
    bias_term: true
    bias_filler {
      value: 0
    }
  }
}
layer {
  name: "conv13_1/relu"
  type: "ReLU"
  bottom: "conv13_1"
  top: "conv13_1"
}
layer {
  name: "conv13_2"
  type: "Convolution"
  bottom: "conv13_1"
  top: "conv13_2"
  param {
    lr_mult: 1
    decay_mult: 1
  }
  convolution_param {
    num_output: 960
    bias_term: false
    kernel_size: 1    
    weight_filler {
      type: "msra"
    }
  }
}
layer {
  name: "conv13_2/bn"
  type: "BatchNorm"
  bottom: "conv13_2"
  top: "conv13_2"
  param {
    lr_mult: 0
    decay_mult: 0
  }
  param {
    lr_mult: 0
    decay_mult: 0
  }
  param {
    lr_mult: 0
    decay_mult: 0
  }
}
layer {
  name: "conv13_2/scale"
  type: "Scale"
  bottom: "conv13_2"
  top: "conv13_2"
  param {
    lr_mult: 1
    decay_mult: 0.0
  }
  param {
    lr_mult: 2
    decay_mult: 0.0
  }
  scale_param {
    filler {
      value: 1
    }
    bias_term: true
    bias_filler {
      value: 0
    }
  }
}
layer {
  name: "conv13_2/relu"
  type: "ReLU"
  bottom: "conv13_2"
  top: "conv13_2"
}
layer {
  name: "conv14_1"
  type: "Convolution"
  bottom: "conv13_2"
  top: "conv14_1"
  param {
    lr_mult: 1
    decay_mult: 1
  }
  convolution_param {
    num_output: 960
    bias_term: false
    pad: 1
    kernel_size: 3
    group: 3 # 1024
    engine: CAFFE
    weight_filler {
      type: "msra"
    }
  }
}
layer {
  name: "conv14_1/bn"
  type: "BatchNorm"
  bottom: "conv14_1"
  top: "conv14_1"
  param {
    lr_mult: 0
    decay_mult: 0
  }
  param {
    lr_mult: 0
    decay_mult: 0
  }
  param {
    lr_mult: 0
    decay_mult: 0
  }
}
layer {
  name: "conv14_1/scale"
  type: "Scale"
  bottom: "conv14_1"
  top: "conv14_1"
  param {
    lr_mult: 1
    decay_mult: 0.0
  }
  param {
    lr_mult: 2
    decay_mult: 0.0
  }
  scale_param {
    filler {
      value: 1
    }
    bias_term: true
    bias_filler {
      value: 0
    }
  }
}
layer {
  name: "conv14_1/relu"
  type: "ReLU"
  bottom: "conv14_1"
  top: "conv14_1"
}
layer {
  name: "conv14_2"
  type: "Convolution"
  bottom: "conv14_1"
  top: "conv14_2"
  param {
    lr_mult: 1
    decay_mult: 1
  }
  convolution_param {
    num_output: 960
    bias_term: false
    kernel_size: 1
    weight_filler {
      type: "msra"
    }
  }
}
layer {
  name: "conv14_2/bn"
  type: "BatchNorm"
  bottom: "conv14_2"
  top: "conv14_2"
  param {
    lr_mult: 0
    decay_mult: 0
  }
  param {
    lr_mult: 0
    decay_mult: 0
  }
  param {
    lr_mult: 0
    decay_mult: 0
  }
}
layer {
  name: "conv14_2/scale"
  type: "Scale"
  bottom: "conv14_2"
  top: "conv14_2"
  param {
    lr_mult: 1
    decay_mult: 0.0
  }
  param {
    lr_mult: 2
    decay_mult: 0.0
  }
  scale_param {
    filler {
      value: 1
    }
    bias_term: true
    bias_filler {
      value: 0
    }
  }
}
layer {
  name: "conv14_2/relu"
  type: "ReLU"
  bottom: "conv14_2"
  top: "conv14_2"
}
layer {
  name: "conv15_1"
  type: "Convolution"
  bottom: "conv14_2"
  top: "conv15_1"
  param {
    lr_mult: 1
    decay_mult: 1
  }
  convolution_param {
    num_output: 240
    bias_term: false
    kernel_size: 1
    weight_filler {
      type: "msra"
    }
  }
}
layer {
  name: "conv15_1/bn"
  type: "BatchNorm"
  bottom: "conv15_1"
  top: "conv15_1"
  param {
    lr_mult: 0
    decay_mult: 0
  }
  param {
    lr_mult: 0
    decay_mult: 0
  }
  param {
    lr_mult: 0
    decay_mult: 0
  }
}
layer {
  name: "conv15_1/scale"
  type: "Scale"
  bottom: "conv15_1"
  top: "conv15_1"
  param {
    lr_mult: 1
    decay_mult: 0.0
  }
  param {
    lr_mult: 2
    decay_mult: 0.0
  }
  scale_param {
    filler {
      value: 1
    }
    bias_term: true
    bias_filler {
      value: 0
    }
  }
}
layer {
  name: "conv15_1/relu"
  type: "ReLU"
  bottom: "conv15_1"
  top: "conv15_1"
}
layer {
  name: "conv15_2"
  type: "Convolution"
  bottom: "conv15_1"
  top: "conv15_2"
  param {
    lr_mult: 1
    decay_mult: 1
  }
  convolution_param {
    num_output: 480
    bias_term: false
    pad: 1
    kernel_size: 3
    stride: 2
    weight_filler {
      type: "msra"
    }
  }
}
layer {
  name: "conv15_2/bn"
  type: "BatchNorm"
  bottom: "conv15_2"
  top: "conv15_2"
  param {
    lr_mult: 0
    decay_mult: 0
  }
  param {
    lr_mult: 0
    decay_mult: 0
  }
  param {
    lr_mult: 0
    decay_mult: 0
  }
}
layer {
  name: "conv15_2/scale"
  type: "Scale"
  bottom: "conv15_2"
  top: "conv15_2"
  param {
    lr_mult: 1
    decay_mult: 0.0
  }
  param {
    lr_mult: 2
    decay_mult: 0.0
  }
  scale_param {
    filler {
      value: 1
    }
    bias_term: true
    bias_filler {
      value: 0
    }
  }
}
layer {
  name: "conv15_2/relu"
  type: "ReLU"
  bottom: "conv15_2"
  top: "conv15_2"
}
layer {
  name: "conv16_1"
  type: "Convolution"
  bottom: "conv15_2"
  top: "conv16_1"
  param {
    lr_mult: 1
    decay_mult: 1
  }
  convolution_param {
    num_output: 120
    bias_term: false
    kernel_size: 1
    weight_filler {
      type: "msra"
    }
  }
}
layer {
  name: "conv16_1/bn"
  type: "BatchNorm"
  bottom: "conv16_1"
  top: "conv16_1"
  param {
    lr_mult: 0
    decay_mult: 0
  }
  param {
    lr_mult: 0
    decay_mult: 0
  }
  param {
    lr_mult: 0
    decay_mult: 0
  }
}
layer {
  name: "conv16_1/scale"
  type: "Scale"
  bottom: "conv16_1"
  top: "conv16_1"
  param {
    lr_mult: 1
    decay_mult: 0.0
  }
  param {
    lr_mult: 2
    decay_mult: 0.0
  }
  scale_param {
    filler {
      value: 1
    }
    bias_term: true
    bias_filler {
      value: 0
    }
  }
}
layer {
  name: "conv16_1/relu"
  type: "ReLU"
  bottom: "conv16_1"
  top: "conv16_1"
}
layer {
  name: "conv16_2"
  type: "Convolution"
  bottom: "conv16_1"
  top: "conv16_2"
  param {
    lr_mult: 1
    decay_mult: 1
  }
  convolution_param {
    num_output: 240
    bias_term: false
    pad: 1
    kernel_size: 3
    stride: 2
    weight_filler {
      type: "msra"
    }
  }
}
layer {
  name: "conv16_2/bn"
  type: "BatchNorm"
  bottom: "conv16_2"
  top: "conv16_2"
  param {
    lr_mult: 0
    decay_mult: 0
  }
  param {
    lr_mult: 0
    decay_mult: 0
  }
  param {
    lr_mult: 0
    decay_mult: 0
  }
}
layer {
  name: "conv16_2/scale"
  type: "Scale"
  bottom: "conv16_2"
  top: "conv16_2"
  param {
    lr_mult: 1
    decay_mult: 0.0
  }
  param {
    lr_mult: 2
    decay_mult: 0.0
  }
  scale_param {
    filler {
      value: 1
    }
    bias_term: true
    bias_filler {
      value: 0
    }
  }
}
layer {
  name: "conv16_2/relu"
  type: "ReLU"
  bottom: "conv16_2"
  top: "conv16_2"
}
layer {
  name: "conv17_1"
  type: "Convolution"
  bottom: "conv16_2"
  top: "conv17_1"
  param {
    lr_mult: 1
    decay_mult: 1
  }
  convolution_param {
    num_output: 120
    bias_term: false
    kernel_size: 1
    weight_filler {
      type: "msra"
    }
  }
}
layer {
  name: "conv17_1/bn"
  type: "BatchNorm"
  bottom: "conv17_1"
  top: "conv17_1"
  param {
    lr_mult: 0
    decay_mult: 0
  }
  param {
    lr_mult: 0
    decay_mult: 0
  }
  param {
    lr_mult: 0
    decay_mult: 0
  }
}
layer {
  name: "conv17_1/scale"
  type: "Scale"
  bottom: "conv17_1"
  top: "conv17_1"
  param {
    lr_mult: 1
    decay_mult: 0.0
  }
  param {
    lr_mult: 2
    decay_mult: 0.0
  }
  scale_param {
    filler {
      value: 1
    }
    bias_term: true
    bias_filler {
      value: 0
    }
  }
}
layer {
  name: "conv17_1/relu"
  type: "ReLU"
  bottom: "conv17_1"
  top: "conv17_1"
}
layer {
  name: "conv17_2"
  type: "Convolution"
  bottom: "conv17_1"
  top: "conv17_2"
  param {
    lr_mult: 1
    decay_mult: 1
  }
  convolution_param {
    num_output: 240
    bias_term: false
    pad: 1
    kernel_size: 3
    stride: 2
    weight_filler {
      type: "msra"
    }
  }
}
layer {
  name: "conv17_2/bn"
  type: "BatchNorm"
  bottom: "conv17_2"
  top: "conv17_2"
  param {
    lr_mult: 0
    decay_mult: 0
  }
  param {
    lr_mult: 0
    decay_mult: 0
  }
  param {
    lr_mult: 0
    decay_mult: 0
  }
}
layer {
  name: "conv17_2/scale"
  type: "Scale"
  bottom: "conv17_2"
  top: "conv17_2"
  param {
    lr_mult: 1
    decay_mult: 0.0
  }
  param {
    lr_mult: 2
    decay_mult: 0.0
  }
  scale_param {
    filler {
      value: 1
    }
    bias_term: true
    bias_filler {
      value: 0
    }
  }
}
layer {
  name: "conv17_2/relu"
  type: "ReLU"
  bottom: "conv17_2"
  top: "conv17_2"
}
layer {
  name: "conv18_1"
  type: "Convolution"
  bottom: "conv17_2"
  top: "conv18_1"
  param {
    lr_mult: 1
    decay_mult: 1
  }
  convolution_param {
    num_output: 60
    bias_term: false
    kernel_size: 1
    weight_filler {
      type: "msra"
    }
  }
}
layer {
  name: "conv18_1/bn"
  type: "BatchNorm"
  bottom: "conv18_1"
  top: "conv18_1"
  param {
    lr_mult: 0
    decay_mult: 0
  }
  param {
    lr_mult: 0
    decay_mult: 0
  }
  param {
    lr_mult: 0
    decay_mult: 0
  }
}
layer {
  name: "conv18_1/scale"
  type: "Scale"
  bottom: "conv18_1"
  top: "conv18_1"
  param {
    lr_mult: 1
    decay_mult: 0.0
  }
  param {
    lr_mult: 2
    decay_mult: 0.0
  }
  scale_param {
    filler {
      value: 1
    }
    bias_term: true
    bias_filler {
      value: 0
    }
  }
}
layer {
  name: "conv18_1/relu"
  type: "ReLU"
  bottom: "conv18_1"
  top: "conv18_1"
}
layer {
  name: "conv18_2"
  type: "Convolution"
  bottom: "conv18_1"
  top: "conv18_2"
  param {
    lr_mult: 1
    decay_mult: 1
  }
  convolution_param {
    num_output: 120
    bias_term: false
    pad: 1
    kernel_size: 3
    stride: 2
    weight_filler {
      type: "msra"
    }
  }
}
layer {
  name: "conv18_2/bn"
  type: "BatchNorm"
  bottom: "conv18_2"
  top: "conv18_2"
  param {
    lr_mult: 0
    decay_mult: 0
  }
  param {
    lr_mult: 0
    decay_mult: 0
  }
  param {
    lr_mult: 0
    decay_mult: 0
  }
}
layer {
  name: "conv18_2/scale"
  type: "Scale"
  bottom: "conv18_2"
  top: "conv18_2"
  param {
    lr_mult: 1
    decay_mult: 0.0
  }
  param {
    lr_mult: 2
    decay_mult: 0.0
  }
  scale_param {
    filler {
      value: 1
    }
    bias_term: true
    bias_filler {
      value: 0
    }
  }
}
layer {
  name: "conv18_2/relu"
  type: "ReLU"
  bottom: "conv18_2"
  top: "conv18_2"
}
layer {
  name: "conv12_mbox_loc"
  type: "Convolution"
  bottom: "resx12_elewise"
  top: "conv12_mbox_loc"
  param {
    lr_mult: 1
    decay_mult: 1
  }
  param {
    lr_mult: 2
    decay_mult: 0.0
  }
  convolution_param {
    num_output: 12
    kernel_size: 1
    weight_filler {
      type: "msra"
    }
    bias_filler {
      type: "constant"
      value: 0.0
    }
  }
}
layer {
  name: "conv12_mbox_loc_perm"
  type: "Permute"
  bottom: "conv12_mbox_loc"
  top: "conv12_mbox_loc_perm"
  permute_param {
    order: 0
    order: 2
    order: 3
    order: 1
  }
}
layer {
  name: "conv12_mbox_loc_flat"
  type: "Flatten"
  bottom: "conv12_mbox_loc_perm"
  top: "conv12_mbox_loc_flat"
  flatten_param {
    axis: 1
  }
}
layer {
  name: "conv12_mbox_conf"
  type: "Convolution"
  bottom: "resx12_elewise"
  top: "conv12_mbox_conf"
  param {
    lr_mult: 1.0
    decay_mult: 1.0
  }
  param {
    lr_mult: 2.0
    decay_mult: 0.0
  }
  convolution_param {
    num_output: 6  #cls3x
    kernel_size: 1
    weight_filler {
      type: "msra"
    }
    bias_filler {
      type: "constant"
      value: 0.0
    }
  }
}
layer {
  name: "conv12_mbox_conf_perm"
  type: "Permute"
  bottom: "conv12_mbox_conf"
  top: "conv12_mbox_conf_perm"
  permute_param {
    order: 0
    order: 2
    order: 3
    order: 1
  }
}
layer {
  name: "conv12_mbox_conf_flat"
  type: "Flatten"
  bottom: "conv12_mbox_conf_perm"
  top: "conv12_mbox_conf_flat"
  flatten_param {
    axis: 1
  }
}
layer {
  name: "conv12_mbox_priorbox"
  type: "PriorBox"
  bottom: "resx12_elewise"
  bottom: "data"
  top: "conv12_mbox_priorbox"
  prior_box_param {
    min_size: 60.0
    aspect_ratio: 2.0
    flip: true
    clip: false
    variance: 0.1
    variance: 0.1
    variance: 0.2
    variance: 0.2
    offset: 0.5
  }
}
layer {
  name: "conv14_2_mbox_loc"
  type: "Convolution"
  bottom: "conv14_2"
  top: "conv14_2_mbox_loc"
  param {
    lr_mult: 1
    decay_mult: 1
  }
  param {
    lr_mult: 2
    decay_mult: 0.0
  }
  convolution_param {
    num_output: 24
    kernel_size: 1
    weight_filler {
      type: "msra"
    }
    bias_filler {
      type: "constant"
      value: 0.0
    }
  }
}
layer {
  name: "conv14_2_mbox_loc_perm"
  type: "Permute"
  bottom: "conv14_2_mbox_loc"
  top: "conv14_2_mbox_loc_perm"
  permute_param {
    order: 0
    order: 2
    order: 3
    order: 1
  }
}
layer {
  name: "conv14_2_mbox_loc_flat"
  type: "Flatten"
  bottom: "conv14_2_mbox_loc_perm"
  top: "conv14_2_mbox_loc_flat"
  flatten_param {
    axis: 1
  }
}
layer {
  name: "conv14_2_mbox_conf"
  type: "Convolution"
  bottom: "conv14_2"
  top: "conv14_2_mbox_conf"
  param {
    lr_mult: 1.0
    decay_mult: 1.0
  }
  param {
    lr_mult: 2.0
    decay_mult: 0.0
  }
  convolution_param {
    num_output:12  #cls6x
    kernel_size: 1
    weight_filler {
      type: "msra"
    }
    bias_filler {
      type: "constant"
      value: 0.0
    }
  }
}
layer {
  name: "conv14_2_mbox_conf_perm"
  type: "Permute"
  bottom: "conv14_2_mbox_conf"
  top: "conv14_2_mbox_conf_perm"
  permute_param {
    order: 0
    order: 2
    order: 3
    order: 1
  }
}
layer {
  name: "conv14_2_mbox_conf_flat"
  type: "Flatten"
  bottom: "conv14_2_mbox_conf_perm"
  top: "conv14_2_mbox_conf_flat"
  flatten_param {
    axis: 1
  }
}
layer {
  name: "conv14_2_mbox_priorbox"
  type: "PriorBox"
  bottom: "conv14_2"
  bottom: "data"
  top: "conv14_2_mbox_priorbox"
  prior_box_param {
    min_size: 105.0
    max_size: 150.0
    aspect_ratio: 2.0
    aspect_ratio: 3.0
    flip: true
    clip: false
    variance: 0.1
    variance: 0.1
    variance: 0.2
    variance: 0.2
    offset: 0.5
  }
}
layer {
  name: "conv15_2_mbox_loc"
  type: "Convolution"
  bottom: "conv15_2"
  top: "conv15_2_mbox_loc"
  param {
    lr_mult: 1
    decay_mult: 1
  }
  param {
    lr_mult: 2
    decay_mult: 0.0
  }
  convolution_param {
    num_output: 24
    kernel_size: 1
    weight_filler {
      type: "msra"
    }
    bias_filler {
      type: "constant"
      value: 0.0
    }
  }
}
layer {
  name: "conv15_2_mbox_loc_perm"
  type: "Permute"
  bottom: "conv15_2_mbox_loc"
  top: "conv15_2_mbox_loc_perm"
  permute_param {
    order: 0
    order: 2
    order: 3
    order: 1
  }
}
layer {
  name: "conv15_2_mbox_loc_flat"
  type: "Flatten"
  bottom: "conv15_2_mbox_loc_perm"
  top: "conv15_2_mbox_loc_flat"
  flatten_param {
    axis: 1
  }
}
layer {
  name: "conv15_2_mbox_conf"
  type: "Convolution"
  bottom: "conv15_2"
  top: "conv15_2_mbox_conf"
  param {
    lr_mult: 1.0
    decay_mult: 1.0
  }
  param {
    lr_mult: 2.0
    decay_mult: 0.0
  }
  convolution_param {
    num_output:12  #cls6x
    kernel_size: 1
    weight_filler {
      type: "msra"
    }
    bias_filler {
      type: "constant"
      value: 0.0
    }
  }
}
layer {
  name: "conv15_2_mbox_conf_perm"
  type: "Permute"
  bottom: "conv15_2_mbox_conf"
  top: "conv15_2_mbox_conf_perm"
  permute_param {
    order: 0
    order: 2
    order: 3
    order: 1
  }
}
layer {
  name: "conv15_2_mbox_conf_flat"
  type: "Flatten"
  bottom: "conv15_2_mbox_conf_perm"
  top: "conv15_2_mbox_conf_flat"
  flatten_param {
    axis: 1
  }
}
layer {
  name: "conv15_2_mbox_priorbox"
  type: "PriorBox"
  bottom: "conv15_2"
  bottom: "data"
  top: "conv15_2_mbox_priorbox"
  prior_box_param {
    min_size: 150.0
    max_size: 195.0
    aspect_ratio: 2.0
    aspect_ratio: 3.0
    flip: true
    clip: false
    variance: 0.1
    variance: 0.1
    variance: 0.2
    variance: 0.2
    offset: 0.5
  }
}
layer {
  name: "conv16_2_mbox_loc"
  type: "Convolution"
  bottom: "conv16_2"
  top: "conv16_2_mbox_loc"
  param {
    lr_mult: 1
    decay_mult: 1
  }
  param {
    lr_mult: 2
    decay_mult: 0.0
  }
  convolution_param {
    num_output: 24
    kernel_size: 1
    weight_filler {
      type: "msra"
    }
    bias_filler {
      type: "constant"
      value: 0.0
    }
  }
}
layer {
  name: "conv16_2_mbox_loc_perm"
  type: "Permute"
  bottom: "conv16_2_mbox_loc"
  top: "conv16_2_mbox_loc_perm"
  permute_param {
    order: 0
    order: 2
    order: 3
    order: 1
  }
}
layer {
  name: "conv16_2_mbox_loc_flat"
  type: "Flatten"
  bottom: "conv16_2_mbox_loc_perm"
  top: "conv16_2_mbox_loc_flat"
  flatten_param {
    axis: 1
  }
}
layer {
  name: "conv16_2_mbox_conf"
  type: "Convolution"
  bottom: "conv16_2"
  top: "conv16_2_mbox_conf"
  param {
    lr_mult: 1.0
    decay_mult: 1.0
  }
  param {
    lr_mult: 2.0
    decay_mult: 0.0
  }
  convolution_param {
    num_output:12  #cls6x
    kernel_size: 1
    weight_filler {
      type: "msra"
    }
    bias_filler {
      type: "constant"
      value: 0.0
    }
  }
}
layer {
  name: "conv16_2_mbox_conf_perm"
  type: "Permute"
  bottom: "conv16_2_mbox_conf"
  top: "conv16_2_mbox_conf_perm"
  permute_param {
    order: 0
    order: 2
    order: 3
    order: 1
  }
}
layer {
  name: "conv16_2_mbox_conf_flat"
  type: "Flatten"
  bottom: "conv16_2_mbox_conf_perm"
  top: "conv16_2_mbox_conf_flat"
  flatten_param {
    axis: 1
  }
}
layer {
  name: "conv16_2_mbox_priorbox"
  type: "PriorBox"
  bottom: "conv16_2"
  bottom: "data"
  top: "conv16_2_mbox_priorbox"
  prior_box_param {
    min_size: 195.0
    max_size: 240.0
    aspect_ratio: 2.0
    aspect_ratio: 3.0
    flip: true
    clip: false
    variance: 0.1
    variance: 0.1
    variance: 0.2
    variance: 0.2
    offset: 0.5
  }
}
layer {
  name: "conv17_2_mbox_loc"
  type: "Convolution"
  bottom: "conv17_2"
  top: "conv17_2_mbox_loc"
  param {
    lr_mult: 1
    decay_mult: 1
  }
  param {
    lr_mult: 2
    decay_mult: 0.0
  }
  convolution_param {
    num_output: 24
    kernel_size: 1
    weight_filler {
      type: "msra"
    }
    bias_filler {
      type: "constant"
      value: 0.0
    }
  }
}
layer {
  name: "conv17_2_mbox_loc_perm"
  type: "Permute"
  bottom: "conv17_2_mbox_loc"
  top: "conv17_2_mbox_loc_perm"
  permute_param {
    order: 0
    order: 2
    order: 3
    order: 1
  }
}
layer {
  name: "conv17_2_mbox_loc_flat"
  type: "Flatten"
  bottom: "conv17_2_mbox_loc_perm"
  top: "conv17_2_mbox_loc_flat"
  flatten_param {
    axis: 1
  }
}
layer {
  name: "conv17_2_mbox_conf"
  type: "Convolution"
  bottom: "conv17_2"
  top: "conv17_2_mbox_conf"
  param {
    lr_mult: 1.0
    decay_mult: 1.0
  }
  param {
    lr_mult: 2.0
    decay_mult: 0.0
  }
  convolution_param {
    num_output:12  #cls6x
    kernel_size: 1
    weight_filler {
      type: "msra"
    }
    bias_filler {
      type: "constant"
      value: 0.0
    }
  }
}
layer {
  name: "conv17_2_mbox_conf_perm"
  type: "Permute"
  bottom: "conv17_2_mbox_conf"
  top: "conv17_2_mbox_conf_perm"
  permute_param {
    order: 0
    order: 2
    order: 3
    order: 1
  }
}
layer {
  name: "conv17_2_mbox_conf_flat"
  type: "Flatten"
  bottom: "conv17_2_mbox_conf_perm"
  top: "conv17_2_mbox_conf_flat"
  flatten_param {
    axis: 1
  }
}
layer {
  name: "conv17_2_mbox_priorbox"
  type: "PriorBox"
  bottom: "conv17_2"
  bottom: "data"
  top: "conv17_2_mbox_priorbox"
  prior_box_param {
    min_size: 240.0
    max_size: 285.0
    aspect_ratio: 2.0
    aspect_ratio: 3.0
    flip: true
    clip: false
    variance: 0.1
    variance: 0.1
    variance: 0.2
    variance: 0.2
    offset: 0.5
  }
}
layer {
  name: "conv18_2_mbox_loc"
  type: "Convolution"
  bottom: "conv18_2"
  top: "conv18_2_mbox_loc"
  param {
    lr_mult: 1
    decay_mult: 1
  }
  param {
    lr_mult: 2
    decay_mult: 0.0
  }
  convolution_param {
    num_output: 24
    kernel_size: 1
    weight_filler {
      type: "msra"
    }
    bias_filler {
      type: "constant"
      value: 0.0
    }
  }
}
layer {
  name: "conv18_2_mbox_loc_perm"
  type: "Permute"
  bottom: "conv18_2_mbox_loc"
  top: "conv18_2_mbox_loc_perm"
  permute_param {
    order: 0
    order: 2
    order: 3
    order: 1
  }
}
layer {
  name: "conv18_2_mbox_loc_flat"
  type: "Flatten"
  bottom: "conv18_2_mbox_loc_perm"
  top: "conv18_2_mbox_loc_flat"
  flatten_param {
    axis: 1
  }
}
layer {
  name: "conv18_2_mbox_conf"
  type: "Convolution"
  bottom: "conv18_2"
  top: "conv18_2_mbox_conf"
  param {
    lr_mult: 1.0
    decay_mult: 1.0
  }
  param {
    lr_mult: 2.0
    decay_mult: 0.0
  }
  convolution_param {
    num_output:12  #cls6x
    kernel_size: 1
    weight_filler {
      type: "msra"
    }
    bias_filler {
      type: "constant"
      value: 0.0
    }
  }
}
layer {
  name: "conv18_2_mbox_conf_perm"
  type: "Permute"
  bottom: "conv18_2_mbox_conf"
  top: "conv18_2_mbox_conf_perm"
  permute_param {
    order: 0
    order: 2
    order: 3
    order: 1
  }
}
layer {
  name: "conv18_2_mbox_conf_flat"
  type: "Flatten"
  bottom: "conv18_2_mbox_conf_perm"
  top: "conv18_2_mbox_conf_flat"
  flatten_param {
    axis: 1
  }
}
layer {
  name: "conv18_2_mbox_priorbox"
  type: "PriorBox"
  bottom: "conv18_2"
  bottom: "data"
  top: "conv18_2_mbox_priorbox"
  prior_box_param {
    min_size: 285.0
    max_size: 300.0
    aspect_ratio: 2.0
    aspect_ratio: 3.0
    flip: true
    clip: false
    variance: 0.1
    variance: 0.1
    variance: 0.2
    variance: 0.2
    offset: 0.5
  }
}
layer {
  name: "mbox_loc"
  type: "Concat"
  bottom: "conv12_mbox_loc_flat"
  bottom: "conv14_2_mbox_loc_flat"
  bottom: "conv15_2_mbox_loc_flat"
  bottom: "conv16_2_mbox_loc_flat"
  bottom: "conv17_2_mbox_loc_flat"
  bottom: "conv18_2_mbox_loc_flat"
  top: "mbox_loc"
  concat_param {
    axis: 1
  }
}
layer {
  name: "mbox_conf"
  type: "Concat"
  bottom: "conv12_mbox_conf_flat"
  bottom: "conv14_2_mbox_conf_flat"
  bottom: "conv15_2_mbox_conf_flat"
  bottom: "conv16_2_mbox_conf_flat"
  bottom: "conv17_2_mbox_conf_flat"
  bottom: "conv18_2_mbox_conf_flat"
  top: "mbox_conf"
  concat_param {
    axis: 1
  }
}
layer {
  name: "mbox_priorbox"
  type: "Concat"
  bottom: "conv12_mbox_priorbox"
  bottom: "conv14_2_mbox_priorbox"
  bottom: "conv15_2_mbox_priorbox"
  bottom: "conv16_2_mbox_priorbox"
  bottom: "conv17_2_mbox_priorbox"
  bottom: "conv18_2_mbox_priorbox"
  top: "mbox_priorbox"
  concat_param {
    axis: 2
  }
}
layer {
  name: "mbox_conf_reshape"
  type: "Reshape"
  bottom: "mbox_conf"
  top: "mbox_conf_reshape"
  reshape_param {
    shape {
      dim: 0
      dim: -1
      dim: 2
    }
  }
}
layer {
  name: "mbox_conf_softmax"
  type: "Softmax"
  bottom: "mbox_conf_reshape"
  top: "mbox_conf_softmax"
  softmax_param {
    axis: 2
  }
}
layer {
  name: "mbox_conf_flatten"
  type: "Flatten"
  bottom: "mbox_conf_softmax"
  top: "mbox_conf_flatten"
  flatten_param {
    axis: 1
  }
}
layer {
  name: "detection_out"
  type: "DetectionOutput"
  bottom: "mbox_loc"
  bottom: "mbox_conf_flatten"
  bottom: "mbox_priorbox"
  top: "detection_out"
  include {
    phase: TEST
  }
  detection_output_param {
    num_classes: 2  #cls1x
    share_location: true
    background_label_id: 0
    nms_param {
      nms_threshold: 0.45
      top_k: 400
    }
    code_type: CENTER_SIZE
    keep_top_k: 200
    confidence_threshold: 0.01
  }
}
layer {
  name: "detection_eval"
  type: "DetectionEvaluate"
  bottom: "detection_out"
  bottom: "label"
  top: "detection_eval"
  include {
    phase: TEST
  }
  detection_evaluate_param {
    num_classes: 2  #cls1x
    background_label_id: 0
    overlap_threshold: 0.5
    evaluate_difficult_gt: false
  }
}
